(10,)
_________________________________________________________________
Layer (type)                 Output Shape              Param #   
=================================================================
flatten_1 (Flatten)          (None, 10)                0         
_________________________________________________________________
dense_1 (Dense)              (None, 512)               5632      
_________________________________________________________________
activation_1 (Activation)    (None, 512)               0         
_________________________________________________________________
dense_2 (Dense)              (None, 512)               262656    
_________________________________________________________________
activation_2 (Activation)    (None, 512)               0         
_________________________________________________________________
dense_3 (Dense)              (None, 5)                 2565      
_________________________________________________________________
activation_3 (Activation)    (None, 5)                 0         
=================================================================
Total params: 270,853
Trainable params: 270,853
Non-trainable params: 0
_________________________________________________________________
None
load model
Training for 500000 steps ...
[F[K     39/500000: episode: 1, duration: 0.562s, episode steps: 39, steps per second: 69, episode reward: 39.000, mean reward: 1.000 [1.000, 1.000], mean action: 2.154 [0.000, 4.000], mean observation: 0.498 [0.470, 0.510], loss: 0.880180, mean_absolute_error: 82.667548, mean_q: 104.039556
…
